Models/MotionSense/float16.tflite (tflite, 170432 bytes, 7 tensors)

sequential_4/dense_4/BiasAdd/ReadVariableOp f2 [64]
0	0x2797	0.02965
1	0xa799	-0.02968
2	0xa934	-0.04065
3	0xa42e	-0.01633
4	0x257a	0.0214
5	0x28cb	0.03745
6	0xa5ce	-0.02267
7	0x27aa	0.02994
8	0xa718	-0.02771
9	0x28ec	0.03845
10	0xa93a	-0.04083
11	0x280d	0.03165
12	0xa0fe	-0.00975
13	0x2b19	0.05545
14	0x9470	-0.001083
15	0xa53c	-0.02045
16	0x24cb	0.01872
17	0xa2b5	-0.0131
18	0xa657	-0.02477
19	0xa5af	-0.0222
20	0xa076	-0.00871
21	0x2770	0.02905
22	0xa7dc	-0.0307
23	0xa0fd	-0.00974
24	0x25e3	0.023
25	0x2afc	0.05457
26	0x284e	0.03363
27	0x225d	0.01243
28	0x2536	0.02036
29	0x2566	0.02109
30	0xa80b	-0.0316
31	0x22ca	0.01326
32	0x9af1	-0.00339
33	0x297c	0.04285
34	0xa439	-0.0165
35	0x2675	0.02522
36	0xa17d	-0.01072
37	0x2985	0.04312
38	0x9c30	-0.00409
39	0x2b3a	0.05646
40	0x202d	0.008156
41	0x282e	0.03265
42	0x26c9	0.0265
43	0xa5b3	-0.02226
44	0xa237	-0.01214
45	0xa008	-0.00787
46	0xa0e9	-0.00959
47	0x29ff	0.04684
48	0x89db	-0.0001787
49	0x27c7	0.03038
50	0x20fe	0.00975
51	0xa519	-0.01991
52	0x21de	0.01146
53	0xa6ac	-0.02606
54	0xa52c	-0.0202
55	0x2a22	0.0479
56	0xa258	-0.01239
57	0xa4fb	-0.01945
58	0x2457	0.01695
59	0xa75d	-0.02876
60	0x2882	0.03522
61	0x240f	0.01585
62	0x2961	0.04202
63	0x2187	0.010796

sequential_4/dense_4/MatMul f2 [64, 1152]
0	0xb248	-0.1963
1	0x2c7a	0.06995
2	0xb1ac	-0.1772
3	0xac50	-0.0674
4	0xae06	-0.0941
5	0x1f5e	0.007195
6	0xb12c	-0.1616
7	0x2c32	0.06555
8	0xb023	-0.1293
9	0xb01b	-0.1283
10	0xac4f	-0.0673
11	0xb148	-0.165
12	0x30d9	0.1515
13	0xadb2	-0.089
14	0x2ce2	0.0763
15	0xa75e	-0.02878
16	0xb0cd	-0.15
17	0xa98f	-0.04343
18	0xaedc	-0.1072
19	0xa5c2	-0.02249
20	0xa7ad	-0.02998
21	0xae09	-0.0943
22	0xb0e4	-0.1528
23	0xa4fc	-0.01947
24	0xb02f	-0.1307
25	0xaad6	-0.0534
26	0x2c86	0.0707
27	0x2a8b	0.05112
28	0x2743	0.02837
29	0x319b	0.1752
30	0xb208	-0.1885
31	0x2cd0	0.0752
32	0xad88	-0.0864
33	0xaccc	-0.07495
34	0xaf0c	-0.1101
35	0xa887	-0.03537
36	0xb152	-0.1663
37	0x274b	0.02849
38	0xacba	-0.07385
39	0x2e00	0.09375
40	0xb1e9	-0.1847
41	0xb1d5	-0.1823
42	0x2a81	0.0508
43	0xb00a	-0.1262
44	0x2d92	0.08704
45	0xb106	-0.157
46	0xae60	-0.0996
47	0x2fcd	0.1219
48	0xaf33	-0.1125
49	0xadb0	-0.08887
50	0xb1fa	-0.1868
51	0x2469	0.01723
52	0xaaa0	-0.05176
53	0xb119	-0.1593
54	0xae40	-0.09766
55	0xab7a	-0.0584
56	0xb1ba	-0.179
57	0xacc0	-0.0742
58	0xa8b1	-0.03665
59	0x3007	0.1259
60	0x2471	0.01735
61	0x2fd3	0.12225
62	0xad58	-0.0835
63	0x2ef7	0.1088
64	0xaabc	-0.0526
65	0x2936	0.0407
66	0xaff0	-0.124
67	0xad1c	-0.07983
68	0xadfd	-0.09357
69	0xa677	-0.02525
70	0xb057	-0.1356
71	0x3007	0.1259
72	0xa46a	-0.01724
73	0xb011	-0.1271
74	0x2827	0.03244
75	0xb028	-0.1299
76	0x312e	0.1619
77	0xb00a	-0.1262
78	0xafa0	-0.11914
79	0xb151	-0.1661
80	0xaaae	-0.0522
81	0xb01e	-0.1287
82	0xac1d	-0.0643
83	0xa760	-0.02881
84	0xad83	-0.0861
85	0xade2	-0.0919
86	0x2977	0.0427
87	0xa278	-0.012634
88	0xaf0e	-0.1102
89	0xa46c	-0.01727
90	0x3022	0.1292
91	0x2548	0.02063
92	0x9dbf	-0.00561
93	0x31f1	0.1857
94	0x2832	0.03278
95	0x323a	0.1946
96	0x2530	0.02026
97	0x2d76	0.0853
98	0xabbc	-0.06042
99	0xac42	-0.0665
100	0xa345	-0.0142
101	0x29e6	0.04608
102	0xad34	-0.0813
103	0x25eb	0.02312
104	0xb023	-0.1293
105	0x9493	-0.001117
106	0xa2e2	-0.01344
107	0xa31d	-0.01389
108	0x32d8	0.2139
109	0xac85	-0.0706
110	0xa5fb	-0.02336
111	0xad13	-0.0793
112	0x206b	0.00863
113	0xb03c	-0.1323
114	0xa1f4	-0.01163
115	0x2bd5	0.0612
116	0xa6e0	-0.02686
117	0xb174	-0.1704
118	0xb046	-0.1335
119	0xa99d	-0.04385
120	0xa9fe	-0.0468
121	0xa5f8	-0.02332
122	0x2c21	0.0645
123	0x2e0f	0.09467
124	0x2d04	0.07837
125	0x3228	0.1924
126	0xad70	-0.08496
127	0x35ae	0.355
128	0x27f2	0.03104
129	0x1c42	0.004158
130	0x2b9b	0.05942
131	0x2b88	0.05884
132	0xae80	-0.10156
133	0x2c32	0.06555
134	0xa921	-0.04007
135	0x2d4f	0.08295
136	0xab54	-0.05725
137	0x2969	0.04227
138	0x2869	0.03445
139	0xa51e	-0.01999
140	0x2e55	0.09894
141	0xabcc	-0.0609
142	0xac97	-0.0717
143	0xb196	-0.1746
144	0xaa59	-0.0496
145	0xaebb	-0.10516
146	0xa47c	-0.01752
147	0xa92e	-0.04047
148	0x2b7f	0.05856
149	0xafb7	-0.12054
150	0x2760	0.02881
151	0xaa55	-0.04947
152	0xad92	-0.08704
153	0xaa4a	-0.04913
154	0x2cb4	0.0735
155	0x21c5	0.01127
156	0x2a63	0.0499
157	0x2b64	0.05774
158	0xac82	-0.07043
159	0x33f1	0.2482
160	0xa876	-0.03485
161	0xa2c6	-0.01323
162	0x278d	0.0295
163	0xac8f	-0.0712
164	0x917e	-0.0006704
165	0xa800	-0.03125
166	0xabe2	-0.06158
167	0x295d	0.0419
168	0xb155	-0.1666
169	0xaa90	-0.05127
170	0x27a4	0.02985
171	0xb2cb	-0.2123
172	0x3117	0.159
173	0xaee6	-0.1078
174	0xb057	-0.1356
175	0xb03e	-0.1326
176	0xa9ee	-0.04633
177	0xafdf	-0.123
178	0xa906	-0.03925
179	0xaadf	-0.05368
180	0x2b23	0.05576
181	0xa030	-0.00818
182	0xae22	-0.0958
183	0x9bd1	-0.003817
184	0xa61d	-0.02388
185	0xaa27	-0.04807
186	0x29ff	0.04684
187	0x2d60	0.084
188	0x1bb4	0.003761
189	0x2b21	0.0557
190	0xb27c	-0.2026
191	0x3455	0.2708
192	0xaab7	-0.05246
193	0xa98e	-0.0434
194	0xb083	-0.141
195	0xacf4	-0.0774
196	0xaf57	-0.1147
197	0x25eb	0.02312
198	0xadfc	-0.0935
199	0x26ab	0.02605
200	0x26c1	0.02638
201	0x2ef0	0.1084
202	0x2ba9	0.05984
203	0xa90a	-0.03937
204	0xa82c	-0.0326
205	0xac09	-0.06305
206	0x312c	0.1616
207	0x3130	0.1621
208	0xa4d4	-0.01886
209	0xa730	-0.02808
210	0xb28d	-0.2047
211	0x2856	0.03387
212	0x20c0	0.00928
213	0xb2cd	-0.2125
214	0xb0d9	-0.1515
215	0xa3c7	-0.01519
216	0xb175	-0.1705
217	0xacd9	-0.07574
218	0xab3b	-0.0565
219	0xad27	-0.0805
220	0x2751	0.02858
221	0xad73	-0.08514
222	0xb009	-0.1261
223	0xaf51	-0.1143
224	0xaf99	-0.1187
225	0xad0e	-0.079
226	0xb003	-0.1254
227	0xac59	-0.06793
228	0xaf0b	-0.11005
229	0xa9d9	-0.0457
230	0xb068	-0.1377
231	0x2687	0.0255
232	0xaf92	-0.1183
233	0x2ad1	0.05325
234	0x294c	0.04138
235	0xaf7d	-0.117
236	0x2c00	0.0625
237	0xb242	-0.1956
238	0x2bb2	0.06012
239	0xa847	-0.03342
240	0xb1bf	-0.1796
241	0x2398	0.01483
242	0xb06d	-0.1383
243	0xa944	-0.04114
244	0xace4	-0.0764
245	0xb0b8	-0.1475
246	0xae70	-0.1006
247	0x1e26	0.006004
248	0xb319	-0.2218
249	0xadce	-0.0907
250	0x2dcd	0.09064
251	0x2b91	0.0591
252	0x2a7a	0.0506
253	0xaac1	-0.05276
254	0xadbf	-0.0898
255	0xac2b	-0.0651

sequential_4/dense_5/MatMul f2 [3, 64]
0	0xb1b6	-0.1785
1	0x34c2	0.2974
2	0xb0b5	-0.1471
3	0xaef2	-0.1085
4	0x3263	0.1996
5	0xb727	-0.447
6	0x33a1	0.2384
7	0x31bf	0.1796
8	0x34f6	0.31
9	0xb3e6	-0.2468
10	0x3484	0.2822
11	0xb174	-0.1704
12	0xb369	-0.2316
13	0x3314	0.2212
14	0x2add	0.05362
15	0xb3b6	-0.241
16	0x3024	0.1294
17	0xaa85	-0.05093
18	0xb3f4	-0.2485
19	0x3220	0.1914
20	0x2871	0.0347
21	0x1d81	0.005375
22	0x3684	0.4072
23	0xb236	-0.1941
24	0xb4ac	-0.292
25	0xb546	-0.3296
26	0xb364	-0.231
27	0x32e4	0.2153
28	0xad2a	-0.0807
29	0x33f2	0.2483
30	0x33b8	0.2412
31	0xb61e	-0.3823
32	0x3482	0.2817
33	0x33f8	0.249
34	0xb24d	-0.1969
35	0xaa7f	-0.05075
36	0xb23a	-0.1946
37	0xad54	-0.08325
38	0xae3b	-0.09735
39	0xb85d	-0.5454
40	0x3385	0.235
41	0xb2c5	-0.2115
42	0xb4fb	-0.3113
43	0xb1bd	-0.1793
44	0xaa2f	-0.0483
45	0x3435	0.263
46	0x33f9	0.2491
47	0xb5b9	-0.3577
48	0xaa38	-0.04858
49	0x33fd	0.2496
50	0xb547	-0.3298
51	0xa379	-0.014595
52	0x3523	0.321
53	0x33ef	0.2479
54	0x30a5	0.1451
55	0xb297	-0.2059
56	0xae13	-0.0949
57	0x3341	0.2267
58	0xb73a	-0.4517
59	0xb327	-0.2235
60	0xb33d	-0.2262
61	0xa8b7	-0.03683
62	0xb4bd	-0.2961
63	0xb66b	-0.4011
64	0xb8ab	-0.5835
65	0xaa53	-0.0494
66	0x32c2	0.2112
67	0x295e	0.04193
68	0xb6f3	-0.4343
69	0xb5ae	-0.355
70	0xb5de	-0.3667
71	0xb47c	-0.2803
72	0xb63b	-0.3894
73	0x3506	0.314
74	0xab40	-0.05664
75	0xb4f5	-0.3098
76	0xb1cd	-0.1813
77	0xb227	-0.1923
78	0xb871	-0.555
79	0xaf61	-0.1153
80	0xb785	-0.47
81	0x148e	0.001112
82	0x30d8	0.1514
83	0xb14d	-0.1656
84	0xb4ab	-0.2917
85	0x3472	0.2778
86	0x254e	0.02072
87	0xb1b2	-0.178
88	0xb4f4	-0.3096
89	0xb7e9	-0.4944
90	0x355d	0.3352
91	0xb5eb	-0.3699
92	0x368a	0.4087
93	0xb5cd	-0.3625
94	0x3459	0.2717
95	0xbb95	-0.9478
96	0xb23d	-0.195
97	0xb72d	-0.4485
98	0x31ca	0.1809
99	0xa56e	-0.02121
100	0xb0b1	-0.1466
101	0x3754	0.458
102	0xb80e	-0.507
103	0x34a3	0.2898
104	0xb631	-0.387
105	0x3764	0.462
106	0xbb3f	-0.906
107	0x3136	0.1628
108	0x3060	0.1367
109	0x34fe	0.312
110	0xb051	-0.1349
111	0x3640	0.3906
112	0xb039	-0.132
113	0xb739	-0.4514
114	0xb25f	-0.1991
115	0x319b	0.1752
116	0xb449	-0.2678
117	0x34b1	0.2932
118	0x3226	0.1921
119	0x36bd	0.4211
120	0xb422	-0.2583
121	0x340a	0.2524
122	0xb410	-0.254
123	0xb466	-0.275
124	0xb821	-0.516
125	0xb7a6	-0.478
126	0xb7c6	-0.4858
127	0xb3d9	-0.2452
128	0x34cb	0.2996
129	0xa77d	-0.02925
130	0xacfb	-0.0778
131	0x2cc2	0.07434
132	0x3145	0.1647
133	0x3584	0.3447
134	0xb545	-0.3293
135	0x3079	0.1398
136	0xb48b	-0.284
137	0xb4b7	-0.2947
138	0xb5d0	-0.3633
139	0x3749	0.4553
140	0x3055	0.1354
141	0x323e	0.1951
142	0xab20	-0.05566
143	0xb1cf	-0.1815
144	0x2d68	0.0845
145	0xb785	-0.47
146	0x33c4	0.2427
147	0xb40c	-0.253
148	0xb3ef	-0.2479
149	0x2ea9	0.10406
150	0xad00	-0.0781
151	0xb87b	-0.56
152	0x3659	0.3967
153	0x3710	0.4414
154	0xb30c	-0.2202
155	0x3268	0.2002
156	0xb122	-0.1604
157	0x330d	0.2203
158	0xb46f	-0.277
159	0x32b6	0.2097
160	0x3426	0.2593
161	0x3183	0.1722
162	0x313c	0.1636
163	0x3828	0.5195
164	0xb992	-0.6963
165	0xb196	-0.1746
166	0x318c	0.1733
167	0xb107	-0.1571
168	0x33b8	0.2412
169	0x32db	0.2142
170	0x3275	0.2018
171	0xb2dc	-0.2144
172	0xb139	-0.1632
173	0xb25a	-0.1985
174	0xb42d	-0.261
175	0xb392	-0.2366
176	0x34b6	0.2944
177	0x33a1	0.2384
178	0x36f9	0.4358
179	0x28d5	0.03775
180	0x2e2c	0.09644
181	0xb78b	-0.4714
182	0xb61e	-0.3823
183	0xb4af	-0.2927
184	0xabea	-0.06183
185	0x33e0	0.2461
186	0x35cb	0.362
187	0xad90	-0.0869
188	0x35f7	0.3728
189	0x36a2	0.4146
190	0x30c8	0.1494
191	0x3681	0.4065

sequential_4/conv2d_6/Conv2D f2 [32, 3, 3, 1]
0	0xad4d	-0.0828
1	0xa8c5	-0.03726
2	0x2547	0.02061
3	0xb1e0	-0.1836
4	0x296b	0.04233
5	0xae07	-0.0942
6	0x224a	0.01228
7	0x304c	0.1343
8	0x198c	0.002708
9	0xa9ce	-0.04535
10	0xafbe	-0.121
11	0xb413	-0.2546
12	0x9f76	-0.007286
13	0xa9fa	-0.0467
14	0xb05d	-0.1364
15	0x9e3f	-0.0061
16	0xb344	-0.227
17	0xb1a9	-0.1769
18	0xb0ab	-0.1459
19	0x2ad6	0.0534
20	0xa46a	-0.01724
21	0xae0a	-0.09436
22	0x2d80	0.08594
23	0x30cb	0.1498
24	0x3084	0.1411
25	0xa890	-0.03564
26	0x28b5	0.03677
27	0x2825	0.03238
28	0x2d5d	0.0838
29	0x3004	0.1255
30	0x2194	0.010895
31	0x2e6d	0.1004
32	0xaf0a	-0.11
33	0xb111	-0.1583
34	0x9d27	-0.00503
35	0x2f59	0.1148
36	0xad75	-0.08527
37	0xaef9	-0.10895
38	0xafec	-0.1238
39	0xa7bb	-0.0302
40	0x3100	0.1562
41	0x31e2	0.1838
42	0xae54	-0.0989
43	0xabc0	-0.06055
44	0x2f17	0.1108
45	0x2e4a	0.09827
46	0x3025	0.1295
47	0xa878	-0.0349
48	0xae77	-0.101
49	0xad7e	-0.0858
50	0x30ba	0.1477
51	0xb2f0	-0.2168
52	0xac40	-0.0664
53	0x2f08	0.10986
54	0x286c	0.03455
55	0xac27	-0.0649
56	0xaf81	-0.11725
57	0xad8d	-0.08673
58	0x3051	0.1349
59	0x2fe4	0.1233
60	0x1c09	0.00394
61	0xb30e	-0.2205
62	0xb340	-0.2266
63	0xad32	-0.0812
64	0x28f1	0.0386
65	0x2ef6	0.10876
66	0xab80	-0.0586
67	0xb21c	-0.1909
68	0x2fec	0.1238
69	0x2f93	0.11835
70	0x2c09	0.06305
71	0xb0a7	-0.1454
72	0x2f0b	0.11005
73	0x22cc	0.013275
74	0xb2a5	-0.2076
75	0x2972	0.04254
76	0xaed1	-0.1065
77	0xaa9c	-0.05164
78	0x2f0f	0.1103
79	0xb01f	-0.1288
80	0x2da9	0.08844
81	0x2ace	0.05316
82	0x0d2f	0.0003164
83	0x2f27	0.11176
84	0xa818	-0.03198
85	0x25cd	0.02266
86	0x2bb6	0.06024
87	0xa489	-0.01772
88	0x2ad0	0.05322
89	0xacca	-0.0748
90	0x30c7	0.1493
91	0x2cb7	0.07367
92	0x2e97	0.10297
93	0x2818	0.03198
94	0x3036	0.1316
95	0x18b3	0.002295
96	0xaccb	-0.0749
97	0xb122	-0.1604
98	0xac7d	-0.0701
99	0x319f	0.1757
100	0xa807	-0.03146
101	0x32da	0.2141
102	0xaf75	-0.1165
103	0xb009	-0.1261
104	0x2199	0.01093
105	0xaf83	-0.1174
106	0xaf29	-0.1119
107	0x2c9f	0.0722
108	0xae65	-0.0999
109	0xb085	-0.1412
110	0x2e3b	0.09735
111	0x2ff8	0.1245
112	0x23c1	0.015144
113	0xa955	-0.04166
114	0x312d	0.1617
115	0x2b6b	0.05795
116	0xb01c	-0.1284
117	0x3101	0.1564
118	0x2c79	0.0699
119	0xaec6	-0.10583
120	0xaf5c	-0.115
121	0xa15b	-0.01046
122	0x3056	0.1355
123	0xa833	-0.0328
124	0xb172	-0.1702
125	0xadf4	-0.093
126	0x2982	0.04303
127	0x923a	-0.00076
128	0x2c4f	0.0673
129	0x3075	0.1393
130	0x2210	0.01184
131	0x3085	0.1412
132	0xb18b	-0.1732
133	0xb107	-0.1571
134	0xb027	-0.1298
135	0x2e01	0.0938
136	0x9dbe	-0.005608
137	0xac8c	-0.07104
138	0xb065	-0.1373
139	0x2597	0.02184
140	0x24c7	0.01866
141	0xa98a	-0.04327
142	0xad47	-0.08246
143	0x8da5	-0.0003445
144	0xadb8	-0.08936
145	0xa707	-0.02745
146	0x2961	0.04202
147	0x314d	0.1656
148	0x272f	0.02806
149	0x2ea9	0.10406
150	0xaeed	-0.1082
151	0xb19a	-0.175
152	0xb05f	-0.1366
153	0x2d9f	0.0878
154	0x2fb9	0.12067
155	0xa2f2	-0.013565
156	0xb1b7	-0.1786
157	0x3078	0.1396
158	0x2ece	0.1063
159	0xb165	-0.1686
160	0xb00e	-0.1267
161	0x2366	0.01445
162	0xa695	-0.02571
163	0xa711	-0.0276
164	0x300e	0.1267
165	0xafec	-0.1238
166	0xb123	-0.1605
167	0x2ad4	0.05334
168	0xa529	-0.02016
169	0xa4dc	-0.01898
170	0x304f	0.1346
171	0xad6e	-0.08484
172	0x301c	0.1284
173	0x3155	0.1666
174	0xaf1f	-0.11127
175	0x303a	0.1321
176	0x2edd	0.10724
177	0xafee	-0.1239
178	0xaa5e	-0.04974
179	0xb1e6	-0.1843
180	0x1b73	0.003637
181	0x266e	0.02512
182	0xae6c	-0.10034
183	0x2830	0.0327
184	0x25c9	0.0226
185	0x2c51	0.06744
186	0xacb5	-0.07355
187	0x2dad	0.0887
188	0x2ea8	0.104
189	0x2e72	0.1007
190	0xab7a	-0.0584
191	0xae22	-0.0958
192	0xa062	-0.00856
193	0x9e4c	-0.00615
194	0x2cc3	0.0744
195	0xb08a	-0.1418
196	0x20ed	0.00962
197	0xaefc	-0.10913
198	0x285b	0.03403
199	0xaf5a	-0.11487
200	0x9eb9	-0.006565
201	0xaea2	-0.10364
202	0xa92e	-0.04047
203	0x2eed	0.1082
204	0xb380	-0.2344
205	0xafd8	-0.12256
206	0x2e18	0.0952
207	0x9f94	-0.0074
208	0xac2a	-0.06506
209	0xaa4e	-0.04926
210	0x2922	0.0401
211	0xadcb	-0.0905
212	0xab67	-0.05783
213	0x2c2b	0.0651
214	0x2e1e	0.0956
215	0x2f9a	0.1188
216	0x1edd	0.006702
217	0x2da2	0.088
218	0x308f	0.1425
219	0x2d70	0.08496
220	0x30ab	0.1459
221	0xac4f	-0.0673
222	0xb2a0	-0.207
223	0xb200	-0.1875
224	0xa709	-0.02748
225	0x2e58	0.0991
226	0x133b	0.0008826
227	0x24be	0.01852
228	0x9dde	-0.00573
229	0xa9d1	-0.04544
230	0xb102	-0.1565
231	0x3036	0.1316
232	0x2f7f	0.1171
233	0xb1d1	-0.1818
234	0xad63	-0.08417
235	0xb05b	-0.1361
236	0xae0b	-0.0944
237	0xafe5	-0.12335
238	0xaca5	-0.0726
239	0xa3f6	-0.01555
240	0x2f26	0.1117
241	0xa9de	-0.04584
242	0xa79e	-0.02975
243	0xa947	-0.04123
244	0xadcd	-0.09064
245	0xb03a	-0.1321
246	0x294e	0.04144
247	0xb083	-0.141
248	0x24dd	0.019
249	0x2d23	0.08026
250	0x2ebf	0.1054
251	0xace7	-0.0766
252	0xb462	-0.274
253	0xb3ad	-0.2399
254	0xb798	-0.4746
255	0xa75a	-0.02872

sequential_4/conv2d_7/Conv2D f2 [32, 3, 3, 32]
0	0xaeba	-0.1051
1	0xad09	-0.0787
2	0x2f35	0.1126
3	0x2cba	0.07385
4	0xb058	-0.1357
5	0x2a16	0.04755
6	0xb46d	-0.2766
7	0xabc8	-0.0608
8	0xa9aa	-0.04425
9	0xa8b6	-0.0368
10	0x24bd	0.01851
11	0xac40	-0.0664
12	0xa390	-0.01477
13	0xad6e	-0.08484
14	0xaaed	-0.0541
15	0xad50	-0.083
16	0xb0d1	-0.1505
17	0x133d	0.0008836
18	0xaba9	-0.05984
19	0xa52f	-0.02025
20	0x2dfe	0.0936
21	0xa791	-0.02956
22	0xb521	-0.3206
23	0x2e19	0.0953
24	0x2603	0.02348
25	0x294b	0.04135
26	0xa80d	-0.03165
27	0xa290	-0.01282
28	0xad7e	-0.0858
29	0x11d7	0.000713
30	0xac62	-0.0685
31	0xad7f	-0.0859
32	0x9e75	-0.006306
33	0x26cd	0.02657
34	0xab61	-0.05765
35	0xad6f	-0.0849
36	0xaaa0	-0.05176
37	0xa8d5	-0.03775
38	0xae5b	-0.0993
39	0xacbc	-0.074
40	0xa4b4	-0.01837
41	0x2a3b	0.04868
42	0xac3c	-0.06616
43	0xa90c	-0.03943
44	0xa3c1	-0.015144
45	0xae10	-0.0947
46	0xa55b	-0.02092
47	0x2ed4	0.1067
48	0xb02d	-0.1305
49	0x28e8	0.03833
50	0xafbd	-0.1209
51	0xa422	-0.01614
52	0x28b5	0.03677
53	0x2ad0	0.05322
54	0xb48b	-0.284
55	0x240d	0.01582
56	0xa7d9	-0.03065
57	0x2637	0.02428
58	0xa04d	-0.0084
59	0xb115	-0.1588
60	0xaa42	-0.0489
61	0x279d	0.02974
62	0x2ac8	0.05298
63	0x2768	0.02893
64	0xb0e8	-0.1533
65	0xb164	-0.1685
66	0xac92	-0.0714
67	0x2b70	0.0581
68	0xa0f4	-0.009674
69	0x2c8e	0.07117
70	0xb369	-0.2316
71	0x309a	0.1438
72	0xb12a	-0.1614
73	0xabd6	-0.06122
74	0x2910	0.03955
75	0x30e3	0.1527
76	0x2b4e	0.05707
77	0xb0b5	-0.1471
78	0xabaa	-0.05988
79	0xa6d3	-0.02666
80	0xa795	-0.02962
81	0x2df3	0.09296
82	0x2d50	0.083
83	0xa80b	-0.0316
84	0x9af8	-0.003403
85	0x2b01	0.05472
86	0xb256	-0.198
87	0xae17	-0.09515
88	0x2e2f	0.0966
89	0xaca3	-0.07245
90	0xa841	-0.03323
91	0xb254	-0.1978
92	0xac5f	-0.0683
93	0xaa52	-0.04938
94	0x2b17	0.0554
95	0xb20d	-0.1891
96	0xac2e	-0.0653
97	0xb042	-0.133
98	0xa6b5	-0.0262
99	0x2ead	0.1043
100	0xaf55	-0.11456
101	0x3010	0.127
102	0xb0fd	-0.1559
103	0xad18	-0.0796
104	0xac08	-0.063
105	0x2e25	0.096
106	0xa715	-0.02766
107	0x2961	0.04202
108	0xb192	-0.1741
109	0xaa75	-0.05045
110	0xac7b	-0.07
111	0x9a78	-0.003159
112	0xa6a1	-0.0259
113	0x328a	0.2043
114	0x2b2a	0.05597
115	0x2221	0.01197
116	0xa305	-0.01371
117	0xaccc	-0.07495
118	0xafd8	-0.12256
119	0xaf13	-0.11053
120	0x2888	0.0354
121	0x28c5	0.03726
122	0x2ed9	0.107
123	0xb15b	-0.1674
124	0xb01c	-0.1284
125	0x2c54	0.0676
126	0x2e11	0.0948
127	0x9dcd	-0.005665
128	0xb2dc	-0.2144
129	0x9fe8	-0.00772
130	0xaeb5	-0.1048
131	0x2eae	0.1044
132	0xaddb	-0.0915
133	0xa6ef	-0.02708
134	0xb412	-0.2544
135	0xb001	-0.1251
136	0xa916	-0.03973
137	0xa3be	-0.01512
138	0xad1a	-0.0797
139	0xb061	-0.1368
140	0xa8c5	-0.03726
141	0x0a84	0.0001988
142	0xb26a	-0.2004
143	0xaa6f	-0.05026
144	0xb063	-0.1371
145	0x2d5b	0.0837
146	0xb27b	-0.2025
147	0xadf2	-0.0929
148	0xa69b	-0.0258
149	0xa6f4	-0.02716
150	0xb4c6	-0.2983
151	0x2400	0.01563
152	0x2299	0.012886
153	0x20c6	0.00932
154	0x1776	0.0018215
155	0xb167	-0.1688
156	0xa8dd	-0.038
157	0xa695	-0.02571
158	0x2dd7	0.09125
159	0xad47	-0.08246
160	0xabda	-0.06134
161	0xb1de	-0.1833
162	0x286d	0.03458
163	0xaf52	-0.1144
164	0xa480	-0.01758
165	0xa8b9	-0.0369
166	0xb3ba	-0.2415
167	0x2faa	0.11975
168	0xa3b1	-0.01502
169	0x2bdd	0.06143
170	0xabe3	-0.0616
171	0xb043	-0.1332
172	0x2405	0.0157
173	0xa567	-0.0211
174	0xb117	-0.159
175	0x2d92	0.08704
176	0xb045	-0.1334
177	0x2d34	0.0813
178	0x270d	0.02754
179	0xaa91	-0.0513
180	0x272b	0.028
181	0x2bb4	0.06018
182	0xb516	-0.3179
183	0x2885	0.0353
184	0xad6b	-0.08466
185	0xab60	-0.05762
186	0xa8f6	-0.03876
187	0xb194	-0.1743
188	0xb202	-0.1877
189	0xa8ca	-0.0374
190	0xaf6c	-0.11597
191	0xb14c	-0.1655
192	0xa449	-0.01674
193	0xb009	-0.1261
194	0xac81	-0.0704
195	0x2d1c	0.07983
196	0x11ce	0.0007086
197	0x3166	0.1687
198	0xb020	-0.1289
199	0x2a13	0.04745
200	0x1e3f	0.0061
201	0x238a	0.014725
202	0x2aae	0.0522
203	0x286e	0.0346
204	0x1687	0.001594
205	0xac68	-0.06885
206	0xa905	-0.0392
207	0xad7a	-0.0856
208	0xa35a	-0.01436
209	0x322a	0.1926
210	0x30dd	0.152
211	0x2f39	0.11285
212	0xae3c	-0.0974
213	0x2c22	0.0646
214	0xb0aa	-0.1458
215	0xacb3	-0.0734
216	0x2428	0.01624
217	0xabf4	-0.06213
218	0xae57	-0.09906
219	0xb09c	-0.144
220	0xaf71	-0.1163
221	0xa875	-0.03482
222	0x2ce1	0.07623
223	0xae12	-0.09485
224	0x1bea	0.003864
225	0xb234	-0.1938
226	0xacf1	-0.0772
227	0xabbd	-0.06046
228	0xaffc	-0.12476
229	0x9551	-0.001298
230	0xb02d	-0.1305
231	0xb08c	-0.1421
232	0xae25	-0.096
233	0xadc3	-0.09
234	0x221c	0.01193
235	0xb162	-0.1682
236	0xa1e3	-0.0115
237	0xa810	-0.03174
238	0xb013	-0.1273
239	0xac42	-0.0665
240	0xafc9	-0.12164
241	0xa673	-0.02519
242	0xa813	-0.03183
243	0x2c4a	0.067
244	0x2e4b	0.0983
245	0xa147	-0.01031
246	0xb3c6	-0.2429
247	0xa5a3	-0.02202
248	0xae78	-0.1011
249	0x27a1	0.0298
250	0x21af	0.0111
251	0x297c	0.04285
252	0xaca2	-0.0724
253	0x29de	0.04584
254	0x278c	0.02948
255	0xa5b1	-0.02223

std.constant f2 [32]
0	0x9d85	-0.00539
1	0x2049	0.00837
2	0xac86	-0.0707
3	0xac7d	-0.0701
4	0xa022	-0.00807
5	0x91c0	-0.000702
6	0x2285	0.01273
7	0x9ccc	-0.004684
8	0xa0ce	-0.009384
9	0x19f0	0.0029
10	0xac24	-0.0647
11	0x18ce	0.002346
12	0x1cc7	0.004665
13	0x9e76	-0.00631
14	0x1e76	0.00631
15	0xa8b9	-0.0369
16	0x963d	-0.001523
17	0x127c	0.0007915
18	0x9e23	-0.005993
19	0x1455	0.001058
20	0xad2e	-0.08093
21	0x9e31	-0.006046
22	0x2c28	0.06494
23	0xaa5e	-0.04974
24	0x14ed	0.001203
25	0xa982	-0.04303
26	0xa141	-0.01026
27	0x2019	0.008
28	0x24ec	0.01923
29	0xa9c2	-0.04498
30	0xa463	-0.01714
31	0xa08c	-0.00888

std.constant1 f2 [32]
0	0x29f2	0.04645
1	0xa772	-0.02908
2	0x2adb	0.05356
3	0x28db	0.03793
4	0x2908	0.0393
5	0xa974	-0.0426
6	0x29e4	0.04602
7	0xa3b0	-0.015015
8	0x2d2f	0.081
9	0x2d62	0.0841
10	0xa58b	-0.02165
11	0x2122	0.010025
12	0x9e19	-0.005955
13	0x2711	0.0276
14	0x2c23	0.06464
15	0xa6e3	-0.0269
16	0x2692	0.02567
17	0xa0fc	-0.009735
18	0x2ad4	0.05334
19	0xa5f9	-0.02333
20	0x1fb2	0.007515
21	0x2bed	0.06192
22	0x29c6	0.0451
23	0x29b9	0.0447
24	0x2748	0.02844
25	0x2d45	0.08234
26	0xa5dc	-0.02289
27	0xa023	-0.00808
28	0xa542	-0.02054
29	0x20c3	0.0093
30	0xa374	-0.01456
31	0x2a57	0.04953
